model_weights.pth (torch, 31620 bytes, 5 tensors)

fc1.weight f4 [64, 79]
000000 50 68 41 bc a4 6d fc 3d c5 a3 9e 3d 4a a4 38 bd
       -0.011804655 0.123256 0.0774608 -0.045078553
000010 e7 cf ac 3c 9d 51 cd bd b5 cc 1b 3e b0 49 38 be
       0.02109523 -0.10025332 0.15214808 -0.1799686
000020 02 7c 2d 3e d0 fa 61 39 2a 58 0b be 9d 34 48 3e
       0.16941836 0.00021551107 -0.1360785 0.1955132
000030 df 11 17 3d 12 d5 22 be 4f 3d 38 be f2 5b b1 3c
       0.036882278 -0.15901592 -0.17992137 0.021650288
000040 30 c4 66 be cf 29 6f 3d fc 9d 64 3e d2 aa b5 3c
       -0.22535777 0.05838948 0.22325891 0.02217618
000050 43 8a d0 bd 46 55 75 3e 42 b9 96 be 79 0d b5 3c
       -0.10182621 0.2395831 -0.29438215 0.02210115
000060 5f 62 af bd cf 6e a6 bd a2 86 f8 3b d2 c1 9f 3c
       -0.08563685 -0.08126604 0.007584409 0.0195016
000070 30 76 93 3c bf d2 84 3e be da 46 be 2e 46 a8 bd
       0.018000692 0.25942037 -0.19419381 -0.08216511
000080 24 92 1b 3e dd 41 f7 3d a9 f5 b2 3d 02 0f 9d 3a
       0.15192467 0.12073109 0.08738262 0.0011982622
000090 6f 49 6b bd 45 18 82 3e ab 29 98 bd 73 51 45 3c
       -0.05744308 0.2540914 -0.074298225 0.012043345
0000a0 dc 6a 1a be 94 b7 cf 39 cc c5 9b 3d 44 6b 06 3d
       -0.15079826 0.00039618893 0.07606086 0.03281714
0000b0 fa 72 40 3d 87 00 8e be c1 ed 42 3e 28 28 54 3e
       0.04698465 -0.27734777 0.19036008 0.20718443
0000c0 44 06 3f be 4c 19 af bd 15 42 02 3e 5d 1b cb 3d
       -0.18654734 -0.08549747 0.12720521 0.099173285
0000d0 0a 48 dd 3c f2 34 f7 3d 5e 3b 56 be cb a8 d3 bc
       0.02701189 0.120706454 -0.20921084 -0.025837323
0000e0 5e 5b 13 be 06 43 24 be 00 3d 0f 3e 38 97 ef 3d
       -0.14390323 -0.16041192 0.13988113 0.116987646
0000f0 8b ab 1a 3d 5c 97 b8 3b b5 ea 61 3e 60 3e 2d 3d
       0.037761252 0.005633278 0.2206219 0.042295814
000100 aa 28 27 3e ee a0 be 3d 56 2b 1b be f4 43 58 bd
       0.16324106 0.09308039 -0.1515325 -0.05279918
000110 9e 19 9d 3d a8 4d 07 be c5 be ab bd 0d 66 1f 3c
       0.07670902 -0.13213217 -0.08385996 0.009728921
000120 43 ec b5 bd 92 c8 a0 3d d6 2f a1 bd bc b0 51 3d
       -0.08882954 0.07850756 -0.07870452 0.051193938
000130 c0 d0 a1 bd 50 47 7e bd 54 bd bd 3c 10 83 a5 bd
       -0.07901144 -0.062079728 0.023161568 -0.08081639
000140 8c 38 e6 3d f6 20 ac bd 6e 35 b6 3d 08 73 ea 3d
       0.11241254 -0.08404724 0.0889691 0.11447722
000150 a9 6d 80 3d e9 e5 26 3e cd 6a 4a be 6f 14 84 3c
       0.06270916 0.16298641 -0.19767304 0.016123025
000160 77 30 73 3d 67 08 73 bc 97 3e 88 be 2c 86 26 be
       0.05937239 -0.014833546 -0.26610252 -0.1626212
000170 6e 3c b0 bd a2 fd a0 bd a2 2d 5a 3d c2 d2 09 be
       -0.08605276 -0.078608766 0.053266175 -0.13459304
000180 57 d5 44 bd b8 5b bc bd e7 b0 01 3e 86 ea 80 bd
       -0.04805502 -0.091971815 0.12665139 -0.06294732
000190 bc 31 6c 3e cf 8c cf 3e d5 3d 3d 3d 61 38 be 3d
       0.23065847 0.40537116 0.046201546 0.09288097
0001a0 cb be f3 bd 06 b9 29 3e ef e7 22 be e0 82 15 be
       -0.11901625 0.16574487 -0.15908788 -0.14600706
0001b0 8b dd 32 3e 4b 82 99 bd 6c fd af 3d ab 0c b5 bd
       0.17467324 -0.074955545 0.08593258 -0.08840307
0001c0 49 74 35 bd da d0 57 3c 34 45 26 be 7f 7b 18 3c
       -0.04430035 0.013172353 -0.16237336 0.0093067875
0001d0 56 d6 4f be d6 e5 61 3e fc bf 0b be 6a c0 86 bd
       -0.20296606 0.22060332 -0.13647455 -0.06579669
0001e0 7b 05 5c bd 7f ec 83 3d d8 35 24 bc d8 07 46 3e
       -0.053716164 0.064415924 -0.010022603 0.1933893
0001f0 16 da 8c 3d ab 9d fc bc dd 83 36 be 19 77 9e 3c
       0.06877534 -0.0308369 -0.1782374 0.0193439
000200 8d 96 3c bc 09 78 e2 bb 41 f9 01 be 9e 9b e8 3d
       -0.0115105035 -0.006911282 -0.12692739 0.113578066
000210 55 2e 6c bd c2 7a 12 be d1 15 9e bd 6e 92 0d 3e
       -0.057661373 -0.14304641 -0.07719005 0.1382539
000220 07 bf e0 3d 60 38 83 be 87 30 7a bd 5e 12 f2 bd
       0.109739356 -0.25628948 -0.061081436 -0.118199095
000230 fc b9 f3 bd 4d b9 13 3e c6 46 b6 bd 4a ab 8d bb
       -0.11900708 0.14426155 -0.08900218 -0.0043233978
000240 fe 1c b4 3c 1f f5 fe bd cc 21 54 bc ef 7e 61 3d
       0.02198648 -0.12449097 -0.012947511 0.055052694
000250 b5 36 48 bc da e1 ba ba 76 64 a3 3d 56 b9 21 be
       -0.012220074 -0.0014257983 0.07978146 -0.15793356
000260 c2 c1 2b bd b2 dc ae bd 5a 83 39 bd 37 98 1f 3e
       -0.04193283 -0.08538188 -0.045291282 0.15585409
000270 9f 25 f0 ba 86 f5 ce bc 60 91 39 bd fe 5e ae 3c
       -0.0018321759 -0.02526356 -0.045304656 0.02128553
000280 0e cb ff 3d 58 8b e4 bd 21 6c 25 be 18 87 66 3d
       0.124899015 -0.1115939 -0.16154529 0.05628118
000290 29 05 6a be da a7 18 bb 3f 17 08 be 3b 11 fe bd
       -0.22853531 -0.0023293407 -0.13290118 -0.1240563
0002a0 e6 0c 0b 3e cc f1 0d bd 8b 34 1a 3e 22 d6 81 3e
       0.13579139 -0.034654424 0.15059106 0.25358683
0002b0 59 97 bb 3c 6f ac 34 bd 36 6d 90 3d fa b1 0d 3e
       0.022899317 -0.044109758 0.0705208 0.13837424
0002c0 98 05 5d 3d 7c 89 3b 3e 3b 7c 1c be 57 7c 79 be
       0.053960413 0.18314165 -0.15281765 -0.24363838
0002d0 60 29 f7 bd c9 b4 84 bd 5d 7f 48 be f3 cf b7 3d
       -0.120684385 -0.064797945 -0.19579835 0.0897521
0002e0 e3 16 41 3c d1 9a d6 3d eb 6a 87 bd c6 38 20 bd
       0.011785242 0.10478748 -0.0661219 -0.039116643
0002f0 83 34 c2 3d 0a 68 ce 3d 65 a0 e0 3c d5 35 c6 bd
       0.09482672 0.100784376 0.027420232 -0.096782364
000300 fd ca 5e 3e a9 49 2d be 3d 1f 6e 3c 87 16 0c be
       0.21757121 -0.1692263 0.014533815 -0.13680468
000310 e3 c0 2c bd 8c 0d 0b 3e c8 7c 82 3e 7a 5d 7d bc
       -0.04217614 0.13579386 0.25485826 -0.015464181
000320 0a 1c c6 bc 03 d5 16 3e 49 bd 8f 3d 82 cf 98 be
       -0.024183292 0.14729695 0.07018525 -0.29845816
000330 b5 5e 0e 3d 40 43 25 3d 5d dc d2 3c 6b a9 7a bd
       0.03475829 0.040347338 0.025739843 -0.061196726
000340 3c 41 b9 3d 51 7a 54 be 25 39 71 be dd 97 01 3e
       0.090456456 -0.20749785 -0.23556955 0.12655587
000350 da 05 bd be 70 c6 10 bd dd c5 47 39 35 be b6 3a
       -0.36918527 -0.035345495 0.00019051829 0.0013942184
000360 37 50 0c 3e e5 b6 bd bd 45 6c d7 3c a4 18 75 be
       0.13702475 -0.092634 0.026296744 -0.23935181
000370 97 4a 8f be 4c 29 82 3d 78 60 96 3c 1a 39 b0 3d
       -0.27986595 0.06355533 0.018356547 0.08604641
000380 70 76 0d 3d 10 92 f6 bd 88 0f 73 3d 1e 8e 00 bc
       0.03453678 -0.12039578 0.059340984 -0.007846383
000390 68 6d 2b 3d 2f a8 e4 bd 23 b3 02 be b4 cb af 3d
       0.041852385 -0.11164891 -0.12763648 0.08583775
0003a0 ea 15 d0 3d e6 ab a7 3d da da 38 be 23 4c 7a bd
       0.1016043 0.08187084 -0.18052235 -0.061107766
0003b0 b8 71 f6 bd 5c 6c b3 bd 66 25 80 bd 9d 5a 1c be
       -0.12033409 -0.08760902 -0.06257133 -0.15268941
0003c0 e1 5d 2b 3e fc 21 cb 3d 1c 2b 7c 3c ac 00 80 3d
       0.1673503 0.099185914 0.015391137 0.06250128
0003d0 24 0c 75 bb 66 2e 74 3c 1b a6 91 bc 82 9c f1 3d
       -0.003739127 0.01490364 -0.0177794 0.117974296
0003e0 e3 8a be bd 44 65 13 3d d7 0d 1d bd 7e b6 87 3e
       -0.09303834 0.035985246 -0.038343277 0.26506418
0003f0 57 0f 60 bd 88 46 2d 3d 1a c3 14 3d c5 c4 6c be
       -0.05470213 0.042303592 0.036318876 -0.23121937

fc1.bias f4 [64]
000000 d5 3e 0e be b4 df 77 bd 00 e7 c0 be 7e 83 5b be
       -0.13891156 -0.060516074 -0.3767624 -0.21436879
000010 c7 e0 8f be 37 a5 4c 3e 13 54 11 be e2 0f 8a be
       -0.2810118 0.199849 -0.14192228 -0.26965243
000020 ce c7 27 be 0a 2b 4e be 83 2e 83 bd 8c ab a6 be
       -0.16384813 -0.20133606 -0.06405356 -0.32552755
000030 8a 1b 8b be d7 51 f9 bd 35 8a ca be 7d de 6f be
       -0.27169448 -0.12173813 -0.3955857 -0.23424716
000040 85 0e 33 be 05 cd cc 3e 5b 9a 67 be b6 4d 78 be
       -0.17486008 0.40000167 -0.22617476 -0.24248394
000050 ff 56 e5 bd d5 dc d9 bd 7d dd be be ac 59 3a be
       -0.11198234 -0.106378235 -0.37278357 -0.1819827
000060 bc dc c5 be 20 55 ab be 56 f5 f7 bd d1 6a 31 be
       -0.3864497 -0.33463383 -0.12107341 -0.17325903
000070 53 f8 c4 bd c7 42 b1 be 8c 7d 4d be 6c 27 a0 be
       -0.096176766 -0.3462126 -0.20067424 -0.31280077
000080 f3 87 2c be 1c 85 51 be f3 91 ae be fa 6c c4 be
       -0.16848736 -0.20460933 -0.34095725 -0.38364393
000090 ee 94 b7 be 8b 28 b1 bd b2 98 82 3c f6 86 b6 bd
       -0.35855812 -0.08650311 0.015941951 -0.089124605
0000a0 3d d3 10 bd 02 f7 96 be b5 99 b5 3e a4 b8 b2 bd
       -0.035357703 -0.29485327 0.35468832 -0.08726624
0000b0 bf 73 97 be 49 fa c2 be 56 d9 c3 be da bf 26 bd
       -0.29580495 -0.38081577 -0.38251752 -0.040710308
0000c0 1a 55 51 be 76 98 16 be 25 2a c0 bc 41 49 01 bf
       -0.2044262 -0.14706597 -0.023457596 -0.505024
0000d0 52 02 3d be 12 39 47 3c 8f 59 61 3d 8f 98 84 bd
       -0.18457916 0.012159603 0.05501705 -0.06474411
0000e0 9e 7c 17 be b8 98 02 3d 83 6a 88 be 37 82 a4 be
       -0.14793631 0.031883925 -0.26643762 -0.32130596
0000f0 ba 1c 3c be f4 b6 c6 3d b0 22 ae 3d c4 d0 56 be
       -0.18370333 0.09702864 0.0850271 -0.20978075

fc2.weight f4 [32, 64]
000000 a0 a8 a5 3d a2 19 09 3e 4f 8a e1 3e 6c f0 48 3e
       0.08088803 0.13388684 0.44050834 0.19622964
000010 cc 22 89 3e c4 0d 24 be 96 85 76 3e af d3 f9 3d
       0.2678436 -0.16020876 0.24074396 0.121985786
000020 4c 95 53 3e 04 ff 26 3e d5 5b 2c 3e 97 33 42 3e
       0.20662421 0.16308218 0.16831906 0.18964992
000030 d9 51 b8 3e a4 25 b0 3d 5b 36 e3 3d 11 a5 4e 3e
       0.35999945 0.086009294 0.11094352 0.20180155
000040 24 90 cf 3d 9d b4 23 be 03 40 5a 3e 8a 74 87 3e
       0.101349145 -0.15986867 0.21313481 0.264561
000050 16 05 ec bd 3c 9d 9e 3d 41 8f 85 3e 3f 45 33 3d
       -0.115244076 0.07744834 0.26085857 0.04376721
000060 c7 49 15 3e 54 88 0f 3e 4f 50 be 3d fa 62 a5 3c
       0.14578925 0.14016849 0.092926614 0.020188797
000070 7b 5c ea 3d af 21 a2 3e e7 30 93 3d e0 8e 6f 3e
       0.114434205 0.31666324 0.07187062 0.23394346
000080 b6 74 4d 3e 9c 29 05 3e f6 b7 8a 3e 8d 6a 53 3e
       0.20064053 0.13004154 0.27093476 0.20646115
000090 ab 8f 89 3e 61 da 84 3e 55 00 95 3d a0 82 79 bc
       0.26867422 0.2594786 0.07275454 -0.015228897
0000a0 b8 97 81 3e 76 66 d0 3d 57 41 b9 bd 58 23 de 3d
       0.25311065 0.10175793 -0.09045666 0.10846585
0000b0 f6 91 58 3e 81 16 f4 3e 82 9b bf 3e 68 20 e0 3d
       0.2114943 0.4767342 0.3742333 0.10943681
0000c0 85 59 2c 3e e8 79 a8 3d aa 28 e3 bd 8c dc ed 3e
       0.16831024 0.08226377 -0.110917404 0.46457326
0000d0 67 09 12 3d 07 b4 e7 bd fb 8b 08 3e 72 e4 8d 3d
       0.035653498 -0.11313634 0.13334648 0.06928338
0000e0 29 b3 db 3d 87 6c 9f bd c6 22 a0 3e 53 6f ab 3e
       0.107275315 -0.07784372 0.3127653 0.3348337
0000f0 2b 4b 8b 3e 44 37 63 3c ed e5 7b be 02 09 44 3e
       0.27205786 0.013868157 -0.24599428 0.19144061
000100 9e ca 00 bd 67 6e 48 bf 17 78 bb be 13 fa 8c be
       -0.03144323 -0.7829346 -0.3661506 -0.2753454
000110 a2 76 28 bd 20 43 29 3d a4 3e 6f 3d 3f f7 78 3e
       -0.041128762 0.04132378 0.058409348 0.24313067
000120 86 95 d0 be 6a fc 63 bc 72 84 4a 3e 5a 81 94 3d
       -0.40739077 -0.013915161 0.19777086 0.07251234
000130 e5 e8 ed 3d 59 c5 8a bc df 09 35 bf 9d a0 9e bd
       0.11616687 -0.016939806 -0.7071819 -0.07745478
000140 ea 49 3c bd c1 90 3f be 33 70 1a bf 5a d9 05 bf
       -0.045968927 -0.18707563 -0.6032745 -0.5228478
000150 e2 e7 c6 be ab 44 7b be 42 71 2b 3d d7 85 b6 be
       -0.38848788 -0.24537914 0.041856058 -0.35648987
000160 08 1b 78 3e 4a 1f 03 3e 6c c0 8c be 0e 5a 61 be
       0.24229062 0.12804905 -0.27490556 -0.2200701
000170 f4 6d 08 bc c3 4b e4 be 72 fd b6 be 33 9a fe 3d
       -0.008326996 -0.44589052 -0.35740238 0.12431755
000180 3a f5 71 3e 0f c5 49 3e 66 3e 9d 3d cc 08 c4 be
       0.23628703 0.19704078 0.07677917 -0.3828796
000190 9c 98 a8 be 21 27 4e 3e 9d 63 05 3e 28 82 fc bd
       -0.32928932 0.20132114 0.1302628 -0.12329513
0001a0 45 d6 fa be dd 92 ef be 83 50 40 3d 07 6c c7 3d
       -0.489916 -0.46791735 0.046951782 0.097374015
0001b0 f2 d0 56 3e 2e a4 65 be 96 fa 95 be 2d dc 7e be
       0.20978144 -0.22425911 -0.29292744 -0.24888678
0001c0 a1 58 9a 3d d5 61 8b bc 8f b6 53 3e 4d 2c c5 be
       0.07536436 -0.017014423 0.2067511 -0.3851036
0001d0 40 7f 77 3e 18 3b 6f be dc 40 b8 3b c0 40 7f 3e
       0.24169636 -0.23362386 0.005622966 0.24927044
0001e0 f9 91 29 bc 11 76 51 3e e7 ba 06 3e f8 42 fb 3d
       -0.010349744 0.20455195 0.13157235 0.12268633
0001f0 e9 b6 dd 3e 32 3e 47 3e f1 a3 86 3d f9 a8 72 bd
       0.43303612 0.1945732 0.06574238 -0.059243176
000200 36 89 8e 3e 67 24 05 bf c7 67 e5 be 61 2a 36 be
       0.2783906 -0.5200867 -0.44805738 -0.17789604
000210 26 41 09 bf 84 65 47 3e 71 fa 94 3d 03 74 f3 3d
       -0.53615034 0.19472319 0.072743304 0.11887362
000220 8e 6a 2a bf 35 af 7e be fe 0e 56 bc 04 5c 35 be
       -0.6656884 -0.24871524 -0.013065098 -0.17710882
000230 ff 7c 33 3e e9 2e 98 bf 7d 66 84 be c6 91 80 3d
       0.17528151 -1.1889316 -0.25859442 0.06277804
000240 99 8a 46 3e 2a 09 ff 3e 80 74 eb be 2a 6c 43 bf
       0.19388808 0.4981168 -0.4598732 -0.7633692
000250 18 57 de be 37 11 0d bd a9 c5 10 be bc 63 19 bf
       -0.43425822 -0.034440245 -0.14137901 -0.5991781
000260 6e fb 85 bd ec dd f7 be 65 73 2c 3d f6 b4 95 bf
       -0.06542097 -0.484115 0.042102236 -1.169585
000270 b2 8a b1 3e aa 9b 80 bf 45 f4 92 3e 1e cc 38 3d
       0.3467613 -1.0047505 0.28701988 0.045116536
000280 62 78 c5 3e b8 70 4d 3e aa 41 f7 be 75 b7 25 3d
       0.38568407 0.2006253 -0.48292285 0.04045816
000290 07 0b e1 bd f4 45 d4 bc 16 94 90 bf 32 4e 56 be
       -0.109884314 -0.025912262 -1.1295192 -0.20928267
0002a0 fd 18 37 bf 9c 91 1e bf 2d 9b a7 3d 24 55 3e bf
       -0.71522504 -0.6194093 0.08183894 -0.74348664
0002b0 f3 f7 8a 3d 60 d3 f5 3d e0 ea d9 3b ca 84 e2 3e
       0.06785574 0.12003207 0.0066503137 0.44241935
0002c0 16 87 3f bf c7 a6 bf be 5d d2 44 be 31 03 e2 be
       -0.748155 -0.3743193 -0.19220872 -0.4414306
0002d0 cc 88 a5 bf 8c 5f 28 3e 41 a3 c9 3e 03 e1 9c 3e
       -1.2932372 0.16442698 0.39382365 0.3064042
0002e0 59 4a b7 3e 33 2a ce bf 88 10 2a bf e3 c4 b0 be
       0.3579891 -1.6106628 -0.66431475 -0.34525213
0002f0 a4 22 10 be 0e 0d a0 3e 6f 24 0a 3e 4f 63 3a bf
       -0.14075714 0.3125996 0.13490461 -0.7280778
000300 a1 f0 a8 3b a7 ef ad 3d bb 98 ad 3e f9 96 22 3e
       0.0051556383 0.08492976 0.33905587 0.15877904
000310 9a f7 f8 3d 57 ec 5d be 7c b4 d3 3d e6 d2 fb 3d
       0.12156601 -0.21672188 0.10337159 0.12296085
000320 83 e6 a4 3d 04 e8 c9 3d e5 a5 ba 3d c2 25 42 3d
       0.08051779 0.098587066 0.09113673 0.04739929
000330 b5 28 9f 3e 78 05 2d 3d d4 97 23 3e 15 48 2b 3e
       0.31085745 0.042241544 0.15975887 0.16726716
000340 9e c2 06 3e a0 d1 b7 bd 96 d4 54 3d 77 5a f6 3d
       0.13160178 -0.0897553 0.05196055 0.120289735
000350 9e 06 e6 bb ca 0a d3 3d 8a 52 da 3c 86 e6 43 3d
       -0.007019832 0.10304792 0.026650686 0.047827266
000360 3c 45 7f 3e bb 8e 88 3d 61 30 90 3d 3d 99 ee 3d
       0.24928755 0.06667849 0.070404775 0.11650322
000370 31 84 1e 3e 40 93 a5 3e f9 cb 44 3e 74 6b bb 3d
       0.15480115 0.32338905 0.19218434 0.091513544
000380 22 a9 ec 3d d4 24 38 3e a6 61 4e 3e c9 92 2d 3e
       0.11555697 0.17982799 0.20154437 0.16950525
000390 69 39 c3 3c 49 18 03 3e 04 66 29 3e 60 22 f0 3d
       0.023831086 0.12802233 0.16542822 0.117253065
0003a0 bc 80 65 3e 7e f8 30 3e 86 90 8f 3d cf 15 39 bc
       0.2241239 0.17282292 0.070099875 -0.0112967035
0003b0 26 a3 76 3e 08 30 75 3e 91 58 66 3e 3a 24 d8 3d
       0.24085674 0.23944104 0.22494723 0.10553785
0003c0 02 b6 27 3e fa 6a f2 3d db ab 82 3c 0b 2d 81 3e
       0.16378024 0.118368104 0.015951088 0.25229678
0003d0 f9 9b 1b bd 6d 92 2a be 52 69 1f 3d 81 08 5c 3e
       -0.037990544 -0.1665742 0.0389188 0.21487619
0003e0 ff 8c c2 3d 92 7f a7 bd cc db 94 3e 24 66 56 3e
       0.09499549 -0.08178629 0.29073942 0.20937401
0003f0 01 cb f4 3d 6d 10 c1 3d 5b bb 2f be 23 83 a5 3c
       0.119527824 0.09426961 -0.17161314 0.020204132

fc2.bias f4 [32]
000000 f1 fc d7 be 9e 5e fc 3e 61 d3 cc 3e b4 d5 84 be
       -0.42185166 0.49290937 0.4000502 -0.25944293
000010 e1 d8 d1 3e 15 15 c9 be 12 05 ec be 99 37 05 3f
       0.40985778 -0.39273897 -0.46097618 0.5203796
000020 b7 e9 9e 3d ae 8e 7f be 3f ab 9f be 18 31 c2 be
       0.07759421 -0.24956772 -0.31185338 -0.3792808
000030 8a 75 37 3f 5a b0 88 be aa 92 77 be 33 f4 6c be
       0.71663725 -0.26697046 -0.24177042 -0.2314003
000040 64 42 7c 3d 30 76 c0 be 87 f4 b0 3e a1 a0 ef be
       0.061586753 -0.3759017 0.3456156 -0.46802238
000050 5b 91 0a 3f 68 ae 84 be 9d ac 0c bf 71 05 ee be
       0.54128045 -0.2591431 -0.54950887 -0.46488526
000060 a6 22 93 be 85 03 df be ec 18 40 be 7c 04 34 3f
       -0.28737372 -0.43557373 -0.18759507 0.7031934
000070 04 bd 6d be 00 57 41 3f e1 6b d2 3e c4 e3 07 bf
       -0.23216635 0.75523376 0.4109793 -0.5308192

fc3.weight f4 [1, 32]
000000 68 42 00 bf e7 33 93 3f 2b c1 b8 3f 74 e4 b8 be
       -0.5010133 1.1500214 1.443395 -0.36111796
000010 18 ae 88 3f 6a ef e5 be b6 cd a9 be b2 4c a3 3f
       1.0678129 -0.4490922 -0.33164757 1.275778
000020 b7 e7 38 3f 23 31 c8 be 9f 40 df be 72 77 fd be
       0.7222857 -0.39099988 -0.4360399 -0.49505192
000030 09 54 c2 3f b4 66 c4 be 3e f3 d4 be 03 52 a5 be
       1.5181895 -0.38359606 -0.4159183 -0.32289132
000040 d7 56 11 3f 1d da ab be c1 0c 9e 3f 33 b4 19 bf
       0.5677313 -0.33564845 1.2347642 -0.6004059
000050 df a7 a9 3f a9 1b bd be 8d d3 cd be 55 db fc be
       1.3254355 -0.36935166 -0.40200463 -0.49386087
000060 aa 16 b1 be a3 a2 be be b4 37 b0 be 87 62 d9 3f
       -0.34587604 -0.37233457 -0.34417498 1.6983193
000070 e6 40 83 be f2 a6 91 3f 68 e1 92 3f 7e af e4 be
       -0.2563545 1.1379073 1.1475039 -0.4466514
